PyTorchTutorial/kitagaku/lightning_logs/version_3/checkpoints/epoch=99-step=1100.ckpt (torch, 4251 bytes, 4 tensors)

fc1.weight f4 [5, 10]
00000000: 8ef4 003d c844 373e 99c3 1ebe ef99 5d3d
00000010: 9f73 e4bd de98 ba3d e711 a4bb d472 7c3e
00000020: c272 cebc dcca febf 3eb9 c3bd e49a 7ebd
00000030: ddad 9abe 5775 56be 257c 05be f1ec 3f3c
00000040: 2f04 003e 374c 423e 6d87 5bbe a702 0dbe
00000050: 5f3b eb3d 6c72 863e 8548 85bd f550 723e
00000060: 9ac6 50bd c60e 093d ba9a 923e a532 96be
00000070: f0da 4bbe 63f5 a3bd 49ed d8be 2651 5d3e
00000080: 62a7 17bf 5ecb 17c0 de5c 90be 74b0 b9be
00000090: 9b55 43be 9947 283e 4f16 ee3d 05fa b9c1
000000a0: 8d3d 883c 0804 26be c123 5b3d 582c 97be
000000b0: bafa 69be 00f0 26be ff4e 4c3e 65dc 3d3e
000000c0: 809c 0fbe 11f2 3abc
0.031483226 0.17897332 -0.15504302 0.05410188 -0.111548655 0.09111188 -0.005007017 0.24653178
-0.025201205 -1.9905658 -0.095568165 -0.062159434 -0.30210772 -0.20943199 -0.13035639 0.011714206
0.12501596 0.18974386 -0.2143838 -0.13770543 0.114859335 0.26259172 -0.06507973 0.23663695
-0.05097065 0.033461355 0.28633672 -0.29335514 -0.19907737 -0.08005788 -0.42368534 0.21612987
-0.5923978 -2.3717875 -0.28195852 -0.36267436 -0.19075625 0.16433562 0.11625349 -23.24708
0.016630912 -0.16212475 0.053500894 -0.2952602 -0.22849551 -0.1630249 0.1995201 0.18541105
-0.14024544 -0.011410252

fc1.bias f4 [5]
00000000: 1b06 533e 6ef5 a03e 6d84 003e 9a61 a03c
00000010: 721d 593e
0.20607798 0.31437248 0.12550516 0.01957779 0.21202639

fc2.weight f4 [3, 5]
00000000: a98b f43f d8ab aa3d 3986 b1be 2713 9040
00000010: 5891 6cbe a741 683f 042b 383e 09a2 87be
00000020: 8bf0 1e40 6266 7b3e f5d9 3bc0 83e1 8b3c
00000030: 8237 d43d 0343 dcc0 dfdb db3e
1.9105121 0.08333558 -0.34672716 4.502338 -0.23102319 0.9072518 0.17985159 -0.2649081
2.4834316 0.24550775 -2.935178 0.017075306 0.1036215 -6.88318 0.42941186

fc2.bias f4 [3]
00000000: 5528 09be 7aa0 2a3d 1040 76be
-0.13394292 0.04165695 -0.24047875
